…
    "                                                 save_freq=1,\n",
    "                                                 verbose=0)"
   ]
  },
  {
   "cell_type": "code",
   "execution_count": 7,
   "metadata": {},
   "outputs": [
    {
     "name": "stdout",
     "output_type": "stream",
     "text": [
      "Model: \"sequential\"\n",
      "_________________________________________________________________\n",
      "Layer (type)                 Output Shape              Param #   \n",
      "=================================================================\n",
      "time_distributed (TimeDistri (None, 40, 88, 88, 8)     152       \n",
      "_________________________________________________________________\n",
      "time_distributed_1 (TimeDist (None, 40, 44, 44, 8)     0         \n",
      "_________________________________________________________________\n",
      "time_distributed_2 (TimeDist (None, 40, 42, 42, 16)    1168      \n",
      "_________________________________________________________________\n",
      "time_distributed_3 (TimeDist (None, 40, 21, 21, 16)    0         \n",
      "_________________________________________________________________\n",
      "time_distributed_4 (TimeDist (None, 40, 19, 19, 16)    2320      \n",
      "_________________________________________________________________\n",
      "time_distributed_5 (TimeDist (None, 40, 9, 9, 16)      0         \n",
      "_________________________________________________________________\n",
      "time_distributed_6 (TimeDist (None, 40, 1296)          0         \n",
      "_________________________________________________________________\n",
      "dropout (Dropout)            (None, 40, 1296)          0         \n",
      "_________________________________________________________________\n",
      "lstm (LSTM)                  (None, 40, 40)            213920    \n",
      "_________________________________________________________________\n",
      "lstm_1 (LSTM)                (None, 40)                12960     \n",
      "_________________________________________________________________\n",
      "dense (Dense)                (None, 1)                 41        \n",
      "=================================================================\n",
      "Total params: 230,561\n",
      "Trainable params: 230,561\n",
      "Non-trainable params: 0\n",
      "_________________________________________________________________\n"
     ]
    }
   ],
   "source": [
    "model.summary()"
   ]
  },
  {
   "cell_type": "code",
   "execution_count": 8,
   "metadata": {},
…
